models/onnx/defect_classification_model.onnx (onnx, 310508 bytes, 13 tensors)

backbone.classifier.9.bias f4 [8]
-0.008853541 0.07310336 -0.0012325298 0.0128769595 -0.045516778 -0.003986359 0.003005594 -0.034643084
00000000: 710e 11bc 37b7 953d d68c a1ba e2f9 523c
00000010: cd6f 3abd 01a0 82bb 80f9 443b e8e5 0dbd

backbone.features.0.0.weight_bias f4 [32]
-0.08147819 0.5803936 0.34923908 0.271254 0.9140803 2.2680478 0.49463314 0.67333245
0.6200863 6.188998e-05 -0.2875026 1.0045656 0.446345 -0.24061231 2.4914305e-06 0.00014470157
-0.029457768 -0.008098074 0.36770892 -2.75065 -0.42688376 0.44422653 0.3113786 -0.005982335
-0.58094186 0.5165969 -0.4474746 0.52378243 -0.16354792 -0.18890437 1.8810723 0.33197725
00000000: 0ade a6bd ad94 143f 77cf b23e cee1 8a3e
00000010: 2b01 6a3f b227 1140 8e40 fd3e 845f 2c3f
00000020: fabd 1e3f eeca 8138 8a33 93be 9b95 803f
00000030: 5587 e43e 1363 76be 7332 2736 08bb 1739
00000040: 6b51 f1bc c9ad 04bc 5844 bc3e a60a 30c0
00000050: 8290 dabe a971 e33e 046d 9f3e 7707 c4bb
00000060: 9bb8 14bf b23f 043f 641b e5be 9b16 063f
00000070: 1b79 27be 2670 41be fac6 f03f ecf8 a93e

backbone.features.1.conv.0.0.weight_bias f4 [32]
-0.003094247 0.9229157 -0.393597 0.40635338 0.25430754 0.86697704 0.8394836 0.40903524
4.1948395 -3.4616325e-05 0.32776308 0.3283197 0.6667545 -0.39552733 -0.00013264312 -0.0001489604
0.00092137407 0.004399953 0.027287498 0.11015232 -0.30813107 1.5977759 0.88582015 -9.416627e-16
0.7625181 -0.7126787 -0.3982975 0.8803625 0.66965705 0.30363587 0.98135066 -0.20296966
00000000: dac8 4abb 3444 6c3f 8c85 c9be 8d0d d03e
00000010: 9934 823e 35f2 5d3f 66e8 563f 116d d13e
00000020: 203c 8640 ff30 11b8 90d0 a73e 8519 a83e
00000030: 6cb0 2a3f 8f82 cabe 1e16 0bb9 4132 1cb9
00000040: 5e88 713a 7b2d 903b 088a df3c 8a97 e13d
00000050: 5bc3 9dbe ec83 cc3f 1cc5 623f 39b5 87a6
00000060: 6334 433f 1c72 36bf a6ed cbbe 705f 613f
00000070: a56e 2b3f 2976 9b3e cc39 7b3f 47d7 4fbe

backbone.features.1.conv.1.weight_bias f4 [16]
-2.10725 0.5441424 -1.520908 1.2138879 -0.09470299 -0.52946705 -0.7268052 -1.9485556
-0.8936195 -1.8538523 1.4783826 -0.52584094 -0.8144208 -0.17640088 2.1632462 1.681762
00000000: 2fdd 06c0 eb4c 0b3f 1dad c2bf ae60 9b3f
00000010: a4f3 c1bd 278b 07bf e80f 3abf 456a f9bf
00000020: 3fc4 64bf 084b edbf a43b bd3f 839d 06bf
00000030: e27d 50bf 6fa2 34be a072 0a40 fa43 d73f

backbone.features.2.conv.2.weight_bias f4 [24]
-1.3169385 0.62844723 -0.7136656 -0.22418305 -0.10455243 -0.78936106 -0.502584 0.21869226
-0.23836608 -0.019015951 0.029246053 0.47604278 0.21242711 1.681742 1.4837005 0.7638497
0.24327017 -0.18628252 -0.54530466 0.15774156 0.35984284 0.28910944 0.14932221 0.12583366
00000000: 7191 a8bf ebe1 203f cab2 36bf 3e90 65be
00000010: 961f d6bd 9113 4abf 58a9 00bf ddf0 5f3e
00000020: 3d16 74be 57c7 9bbc 6b95 ef3c e1bb f33e
00000030: 7e86 593e 5243 d73f e6e9 bd3f a78b 433f
00000040: d11b 793e d8c0 3ebe 1699 0bbf 0187 213e
00000050: 523d b83e 2706 943e ece7 183e 8ada 003e

backbone.features.3.conv.2.weight_bias f4 [24]
-1.3063419 -0.9499072 0.06653665 -0.15024921 -1.2611094 1.1587818 0.7663194 0.07973041
0.12254538 -0.102778226 -2.2721415 -0.5929757 0.65009546 -1.1801208 0.13897328 -0.3495123
0.401372 -0.52378124 -0.49899554 0.3388433 1.0012039 0.9283298 -2.1324978 1.2084274
00000000: 3636 a7bf 1e2d 73bf 5e44 883d eeda 19be
00000010: 086c a1bf f652 943f 822d 443f b249 a33d
00000020: 12f9 fa3d 647d d2bd c46a 11c0 41cd 17bf
00000030: a86c 263f 330e 97bf 034f 0e3e 47f3 b2be
00000040: a180 cd3e 8716 06bf 587c ffbe de7c ad3e
00000050: 7327 803f 06a7 6d3f d87a 08c0 c0ad 9a3f

backbone.features.4.conv.2.weight_bias f4 [32]
0.87792534 0.5881368 -0.71767265 0.5944032 0.15732677 -1.4482726 -0.30167595 -0.2042187
0.034591407 -1.5604416 0.82189065 1.4149265 0.6448407 0.8943022 0.07507269 -0.5358354
0.6913828 -0.08736272 0.515782 -0.34115884 -0.22698016 0.37741572 -0.44335726 0.36152104
-0.83214706 0.91486454 -0.13666603 -1.0403531 0.290941 -0.94130296 -0.72121257 -0.18681914
00000000: b7bf 603f 2290 163f 65b9 37bf cf2a 183f
00000010: 451a 213e ff60 b9bf 4575 9abe b51e 51be
00000020: b8af 0d3d 8dbc c7bf 6d67 523f 501c b53f
00000030: 4814 253f fdf0 643f b6bf 993d 822c 09bf
00000040: 77fe 303f 3aeb b2bd 4a0a 043f 5fac aebe
00000050: 7d6d 68be a23c c13e b9ff e2be 4919 b93e
00000060: 9707 55bf 9034 6a3f 2ef2 0bbe 4a2a 85bf
00000070: 38f6 943e 3bf9 70bf 63a1 38bf 844d 3fbe

backbone.features.5.conv.2.weight_bias f4 [32]
0.047344036 0.20620704 -0.39589724 0.66750264 -0.21649666 -0.02358673 0.16276366 -0.34151593
-0.53533167 0.10858357 0.13027304 -0.20092559 -0.41006678 -0.5237191 0.023360886 -0.37386015
0.3204544 -0.1430125 0.14828177 0.45017207 0.7329463 -0.31908134 0.22581922 -0.50990075
0.09952322 -0.15777475 -0.42720598 0.49884704 0.47197795 -0.15624774 -0.23937792 0.13371171
00000000: d2eb 413d f027 533e 0bb3 cabe 74e1 2a3f
00000010: 4db1 5dbe f538 c1bc 84ab 263e 2ddb aebe
00000020: 7f0b 09bf 1061 de3d 4c66 053e 70bf 4dbe
00000030: 46f4 d1be 7412 06bf 545f bf3c 996a bfbe
00000040: 9912 a43e de71 12be 2dd7 173e f47c e63e
00000050: 5ea2 3b3f a15e a3be 273d 673e db88 02bf
00000060: d4d2 cb3d b48f 21be beba dabe e168 ff3e
00000070: 18a7 f13e 68ff 1fbe 7c1f 75be b9eb 083e

backbone.features.6.conv.2.weight_bias f4 [32]
-0.4251166 0.046481915 -0.2663177 0.24140379 0.2661062 0.28923216 -0.38368663 0.21673377
-0.046627056 0.6345007 0.23033166 0.13994558 0.17163208 0.24457338 0.25348347 -0.5364592
-0.6243966 -0.46342227 0.10022306 0.8119158 0.30075037 0.18572332 -0.0740291 0.23087606
-0.08912233 -0.6033763 -0.39485165 0.38699797 -0.3060207 -0.49865615 0.50071776 -0.29739794
00000000: e2a8 d9be d263 3e3d cb5a 88be 8e32 773e
00000010: 123f 883e 3d16 943e 9372 c4be 75ef 5d3e
00000020: 03fc 3ebd a36e 223f 10dc 6b3e e54d 0f3e
00000030: 52c0 2f3e 7271 7a3e 96c8 813e 6455 09bf
00000040: 75d8 1fbf af45 edbe bf41 cd3d b7d9 4f3f
00000050: f4fb 993e 412e 3e3e 929c 97bd c66a 6c3e
00000060: c585 b6bd df76 1abf ff29 cabe 9924 c63e
00000070: bfae 9cbe dc4f ffbe 0a2f 003f 8b44 98be

backbone.features.7.conv.2.weight_bias f4 [64]
-0.4144782 -0.15157515 -0.6996566 -0.099003874 -0.4611177 -0.10350617 0.10231835 -0.9879739
-0.04147753 1.973067 -1.2988398 1.1713728 0.06622814 -0.51407874 0.43165508 0.117703676
-0.26606122 -0.22922117 -0.17153837 -0.29732448 -0.019481655 -1.0172199 0.6437265 0.474369
0.11495613 -0.16709241 0.8458651 -0.7643082 0.18480423 -1.0537881 0.13639086 0.23869573
1.251401 0.52031946 0.31893817 -0.10272054 -0.098048635 -0.030981349 -1.0451909 -0.1525522
1.236765 0.7680118 -0.62777245 -0.8498445 -0.8079941 -0.00679481 0.19139704 -0.33525392
0.71664 0.35380676 0.5535542 0.17234695 1.2278867 0.50274163 1.0246047 -0.010717465
0.9529919 -1.0216202 0.25098214 -0.26394027 -0.24148278 0.48699015 0.90590763 -0.19989811
00000000: 7d36 d4be 8436 1bbe b21c 33bf 8bc2 cabd
00000010: 9f17 ecbe 0bfb d3bd 488c d13d dceb 7cbf
00000020: 58e4 29bd 768d fc3f 6240 a6bf 8bef 953f
00000030: 9ea2 873d aa9a 03bf e501 dd3e a00e f13d
00000040: 2d39 88be f4b8 6abe c1a7 2fbe ea3a 98be
00000050: fe97 9fbc 4334 82bf 43cb 243f 7ee0 f23e
00000060: 1f6e eb3d 461a 2bbe 9d8a 583f b4a9 43bf
00000070: 523d 3d3e 87e2 86bf 0caa 0b3e a76c 743e
00000080: e82d a03f a833 053f dd4b a33e 255f d2bd
00000090: b9cd c8bd 99cc fdbc d1c8 85bf a536 1cbe
000000a0: 514e 9e3f 6c9c 443f b2b5 20bf 698f 59bf
000000b0: b4d8 4ebf ffa6 debb 96fd 433e 67a6 abbe
000000c0: b875 373f 2926 b53e bab5 0d3f b87b 303e
000000d0: 642b 9d3f adb3 003f 3f26 833f 4e98 2fbc
000000e0: 47f7 733f 73c4 82bf bb80 803e 2e23 87be
000000f0: 4347 77be c656 f93e 90e9 673f 17b2 4cbe

backbone.features.8.conv.2.weight_bias f4 [64]
-0.3079914 -0.15823196 0.09560069 0.25782344 -0.15627381 0.021376317 0.017393442 -0.47937438
-0.30886278 0.01836109 -0.25588202 0.14077367 0.09048315 -0.092233926 0.062089313 0.2580902
0.28255233 0.07937186 0.32294396 -0.319089 -0.14803627 -0.47110507 -0.027221367 0.49510962
0.11726055 -0.24217097 1.0193346 -0.17391372 0.18696935 0.12013401 0.36311856 0.6435891
-0.10163346 0.15955922 -1.1664652 -0.47645846 0.64376926 -0.039046414 0.13383427 -0.26325816
-0.07728819 -0.33640903 0.26718697 -0.08837545 0.49843016 0.16269146 -0.009166351 0.6936022
0.18217318 0.18892002 -0.10545772 0.2989494 0.15263452 -0.25227928 -0.32570738 0.43558383
0.34978276 -0.065142065 0.28782183 0.81269825 0.8102587 -0.60768163 -0.0006498339 -0.22772065
00000000: 0cb1 9dbe 8f07 22be 4bca c33d 6f01 843e
00000010: 3e06 20be 631d af3c b17c 8e3c 8f70 f5be
00000020: 4323 9ebe ff69 963c f802 83be f926 103e
00000030: 3b4f b93d 24e5 bcbd 5d51 7e3d 6624 843e
00000040: b3aa 903e b78d a23d e958 a53e a25f a3be
00000050: d296 17be af34 f1be 58ff debc 027f fd3e
00000060: 4d26 f03d abfb 77be 8e79 823f 7016 32be
00000070: e574 3f3e d208 f63d adea b93e 41c2 243f
00000080: 3425 d0bd 7e63 233e bb4e 95bf 5df2 f3be
00000090: 10ce 243f 22ef 1fbd da0b 093e c6c9 86be
000000a0: 4549 9ebd ce3d acbe bbcc 883e 30fe b4bd
000000b0: 3d32 ff3e 9798 263e 762e 16bc ea8f 313f
000000c0: 9b8b 3a3e 4074 413e 38fa d7bd e50f 993e
000000d0: 394c 1c3e c02a 81be 1ec3 a6be d804 df3e
000000e0: ba16 b33e 3469 85bd 625d 933e fe0c 503f
000000f0: 1d6d 4f3f 0691 1bbf 9d59 2aba 9a2f 69be

backbone.features.9.conv.2.weight_bias f4 [64]
0.28414378 0.14115551 -0.33271924 -0.15354836 -0.29415938 -0.28389847 0.24272673 0.089370154
-0.4721323 0.08238178 0.16841997 -0.25777748 -0.108568266 -0.2990526 0.05858839 0.28047213
0.17100333 -0.30267128 0.39636427 0.06364676 0.3086007 0.45147517 0.2774902 -0.051753294
0.22383696 -0.110571414 0.15729903 -0.020748314 0.028057842 0.006025624 0.0040433686 -0.08711163
-0.029490173 -0.41445988 0.16378807 -0.22020371 -0.19025153 -0.4351464 0.13332234 0.30355284
-0.15756524 -0.22376059 0.18541606 0.19201018 0.1642284 0.22066578 -0.08352828 0.33151275
-0.21268098 0.009008936 0.036199544 -0.41744787 -0.29863945 -0.07572898 -0.044176415 0.013774115
0.011469754 0.04990353 -0.21010244 -0.22882453 0.88589346 0.47508994 0.23737219 -0.16602145
00000000: 4b7b 913e 128b 103e 2d5a aabe c83b 1dbe
00000010: 0f9c 96be 245b 91be 5b8d 783e b307 b73d
00000020: 53bb f1be c7b7 a83d 4976 2c3e 69fb 83be
00000030: 0a59 debd 6c1d 99be 61fa 6f3d 0b9a 8f3e
00000040: 7f1b 2f3e bbf7 9abe 42f0 ca3e 3c59 823d
00000050: e900 9e3e c127 e73e 3213 8e3e 43fb 53bd
00000060: 8435 653e 4473 e2bd ff12 213e 5ef8 a9bc
00000070: 8fd9 e53c 9972 c53b 3c7e 843b 9567 b2bd
00000080: 6095 f1bc 1634 d4be 0fb8 273e 157d 61be
00000090: 4cd1 42be 82cb debe a785 083e 476b 9b3e
000000a0: c858 21be 7f21 65be b5dd 3d3e 519e 443e
000000b0: 7d2b 283e 36f6 613e e010 abbd 0abc a93e
000000c0: 0bc9 59be 379a 133c f945 143d babb d5be
000000d0: 45e7 98be cc17 9bbd 54f2 34bd d3ac 613c
000000e0: a3eb 3b3c a567 4c3d 1825 57be fa50 6abe
000000f0: eac9 623f fd3e f33e b211 733e 8701 2abe

backbone.features.10.conv.2.weight_bias f4 [64]
-0.26577246 -0.15645875 0.13946506 -0.53133965 0.5765072 -0.11020218 -0.15128297 0.24281594
-0.6823561 0.5524145 -0.05875077 -0.46799576 -0.5042754 -0.44425288 -0.38314867 -0.2456356
0.22597101 -0.15516 0.2754132 0.1592719 0.08636475 0.18848494 -0.5831258 0.14253908
-0.03521719 -0.10089296 0.2879749 0.112899825 -0.14998671 -0.22336109 -0.04276319 -0.6475766
-0.685233 0.23563668 0.27711493 0.06305484 -0.056732334 -0.15125547 -0.11518343 0.19071724
0.52643955 0.00975294 -0.0026602964 0.08781188 -0.0929623 -0.14330405 -0.24565196 -0.3872629
0.21391465 -0.3005126 -0.030113209 -0.03586207 -0.33704755 0.26845998 0.022778053 -0.074739374
0.19151936 -0.29685822 -0.7928469 -0.32275444 0.058490418 -0.3076865 -0.042291727 0.18692821
00000000: 5413 88be b936 20be eecf 0e3e e005 08bf
00000010: fa95 133f aeb1 e1bd ece9 1abe bea4 783e
00000020: e4ae 2ebf 096b 0d3f a6a4 70bd 249d efbe
00000030: 3118 01bf 1d75 e3be 102c c4be e687 7bbe
00000040: f264 673e 43e2 1ebe f502 8d3e 2c18 233e
00000050: 01e0 b03d 3202 413e bc47 15bf c4f5 113e
00000060: e63f 10bd f8a0 cebd 7271 933e 0638 e73d
00000070: 1e96 19be c5b8 64be 7428 2fbd 94c7 25bf
00000080: 6e6b 2fbf be4a 713e 02e2 8d3e e522 813d
00000090: 2a60 68bd b7e2 1abe 4ae5 ebbd 614b 433e
000000a0: bec4 063f ccca 1f3c 5e58 2ebb b7d6 b33d
000000b0: 0563 bebd 4cbe 12be 308c 7bbe 5347 c6be
000000c0: 710c 5b3e cadc 99be faaf f6bc 1be4 12bd
000000d0: 7f91 acbe 9673 893e 0a99 ba3c f510 99bd
000000e0: a71d 443e cdfd 97be 04f8 4abf 1240 a5be
000000f0: a693 6f3d 1689 9dbe 173a 2dbd 1c6a 3f3e
